models/mlp_mnist_fp32.pth (torch, 409224 bytes, 4 tensors)

fc1.weight f4 [128, 784]
000000 26 66 c8 bc 66 c6 c6 3c 2c 66 8e bc 5b d5 62 3c
       -0.02446277 0.024264526 -0.017382704 0.013844813
000010 7b d4 8e 3c 3b f3 01 bd 64 18 cc 3a 6d a6 d4 bc
       0.017435303 -0.031726103 0.0015571234 -0.025958264
000020 56 af 1d bd 45 48 5e bc 1e 0f 45 bc 8e 14 ed bb
       -0.03849729 -0.013567035 -0.01202753 -0.0072351163
000030 06 23 c7 bc ef 96 9a bc 7c 5d 14 3c a0 ee d2 3b
       -0.024308693 -0.018870799 0.009055492 0.0064371377
000040 40 53 ad bc 4f 9f a1 3c 65 fc 13 bd 77 f9 51 3b
       -0.02115786 0.019729285 -0.036129374 0.0032039562
000050 ad 41 8e 3c 79 f7 fd bb 58 ed f9 3b 8a 7a eb 3c
       0.017365301 -0.0077504483 0.0076271705 0.028744955
000060 e3 d6 e7 ba 9d 84 8c bc 1d 0b d4 3c 9a 6a 55 3c
       -0.0017687943 -0.017153079 0.025884205 0.013025904
000070 9f fa 3e 3c 75 58 e4 bc c2 4f 07 bd e1 c3 03 bd
       0.011656432 -0.02787421 -0.033035047 -0.032169227
000080 44 b1 cb 3c 3c b6 b1 bc b6 a8 a5 bc 9a cc a7 3c
       0.0248648 -0.021693341 -0.02022205 0.020483304
000090 af 47 e8 3c eb b1 c4 3c a3 80 86 bc c3 33 74 ba
       0.028354494 0.02401062 -0.01641876 -0.00093155744
0000a0 16 6a ad 3c ea 6a af 3c f4 4b 96 bc 8b 90 9e 3c
       0.02116875 0.021413285 -0.018346764 0.019356033
0000b0 9b 49 8b bc d7 98 dd 3c 90 ce da bc 82 00 44 3c
       -0.017002871 0.027050419 -0.026709825 0.011963012
0000c0 b5 78 dd 3b b4 f0 4f 3c 6a 08 ea bc 40 f1 bb bc
       0.006758774 0.012691665 -0.028568465 -0.022942185
0000d0 5f 12 ae 3c f1 e2 a2 bb 65 1d 42 bb 5a 36 72 3c
       0.021248994 -0.004970901 -0.0029619571 0.014783466
0000e0 b8 64 74 bc b8 08 9f bc fb ad bf 3c 03 4f 6b 3c
       -0.014916591 -0.019413337 0.02339839 0.0143621
0000f0 56 21 d2 3b f1 2d 83 3c a8 16 4c 3c b6 a5 c2 3b
       0.0064126654 0.016013118 0.012456574 0.0059401644
000100 7c 05 57 3d de 2b 23 3d 6c 6a 39 3d af 0c 69 3d
       0.052495465 0.039836757 0.045267507 0.05689686
000110 19 d9 91 3d 90 b2 db 3c 0e 09 ac 3d f5 84 0a 3d
       0.07121486 0.026818544 0.084001645 0.033818204
000120 e9 25 87 3d 17 93 ef 3c d1 dd 24 3d 30 7e 80 bb
       0.06599028 0.029244943 0.040250603 -0.0039212927
000130 44 38 66 3d 0f 29 a1 3c 16 c8 db 3c 35 08 ee bc
       0.056206003 0.019672899 0.026828807 -0.029056648
000140 cb 5c 79 3c 68 f4 02 bc 3b 8a 81 bc 98 6a 56 bc
       0.0152198775 -0.007992841 -0.015812984 -0.013086937
000150 a2 6c 8f bb c2 6c 9b bc a3 75 81 bc 58 b1 dd bb
       -0.0043769637 -0.018972758 -0.015803164 -0.006765526
000160 ab 2c a3 bc 3e 78 d1 3c 72 fa fa 3c 72 45 f7 3b
       -0.01991876 0.025570031 0.030637 0.0075461203
000170 d0 a4 a2 3d 06 68 95 3d 7f 67 82 3c 8c cd a3 3d
       0.07941592 0.072952315 0.015918491 0.07998189
000180 5a 64 96 3c 33 87 a8 bc 0b f2 28 3d fe 41 03 3d
       0.018358398 -0.02057228 0.041246455 0.032045357
000190 ea b8 c3 3c 91 9c 96 bd b7 32 97 bd 6a b3 b8 bd
       0.023891885 -0.073540814 -0.0738272 -0.090185955
0001a0 dd c0 89 bd e0 ec 5a 3d 30 63 9e 3d df 84 ca 3d
       -0.06726239 0.053448558 0.07733762 0.098886244
0001b0 24 79 41 3d f5 3c 7a 3c ce 1f a2 3b 86 91 13 bd
       0.04723467 0.015273322 0.004947639 -0.036027454
0001c0 ee ee c8 3c 30 29 7b bc 72 ad 72 3c 45 93 4d 3c
       0.024527993 -0.015329644 0.01481186 0.012547319
0001d0 15 01 75 3c e6 8d de bb 4e 55 39 3c a6 85 82 3c
       0.014953871 -0.006791818 0.011311842 0.01593287
0001e0 f9 20 d8 3c bf cc a3 3d 71 c3 5d 3c 7d 07 94 3c
       0.02638291 0.079980366 0.013535366 0.018069977
0001f0 07 40 8b 3d 9c 75 b0 3c d1 2f b3 3c 6d 8f 4d 3c
       0.067993216 0.021540456 0.021873387 0.012546402
000200 41 b8 57 3d 67 92 5c 3d 17 bc 6e bc 64 ec ef 3c
       0.052665953 0.053850558 -0.014571211 0.029287525
000210 93 8f 2b 3d 8b 7c 6b 3d 6c ce be 3a 6f ce bf bb
       0.04188497 0.05749182 0.0014557368 -0.005853466
000220 95 48 26 bc 05 d7 fb 3a 9b 8b 85 bc 86 67 05 bd
       -0.010149141 0.0019213861 -0.01630192 -0.03256943
000230 22 ae 55 3c 70 2d 23 3c 26 fe eb 3c 86 4d 54 3c
       0.013042005 0.009959564 0.02880771 0.012957936
000240 ea 48 9d 3d 65 10 13 bd 6e 06 d9 bc cd 7c 86 3c
       0.07679923 -0.035904307 -0.026492324 0.016416932
000250 ee a9 ca bd 94 eb b9 bd 9b a5 d0 bd c0 08 64 bd
       -0.09895693 -0.09078136 -0.10187837 -0.055672407
000260 7e 65 31 bd 7c 5c 6a bd 7f 60 59 bb 61 3f fd bc
       -0.04330968 -0.057217106 -0.0033169088 -0.03091401
000270 d7 c9 21 3d 7e 64 aa 3d 00 1d bf 3c b5 eb 87 3d
       0.03949913 0.083199486 0.023329258 0.066367544
000280 23 79 1d 3e 40 7e 2d 3e 9e 15 63 3d 50 38 82 3d
       0.15378241 0.16942692 0.055440538 0.06358397
000290 65 c6 87 3c 1a 12 d2 3c a4 1a 2b 3c d0 d7 a3 3c
       0.016574094 0.025643397 0.010443363 0.020000368
0002a0 79 d9 f3 bc 66 c4 5f ba c3 f7 95 bc 26 e2 b6 3c
       -0.029766785 -0.00085360406 -0.018306619 0.022324633
0002b0 c3 a5 10 3d 24 5d c2 bc 2b 51 8e 3d 2f 2c c7 3d
       0.035314333 -0.023726054 0.06949075 0.09725224
0002c0 ba 0a 12 bd 81 25 5b bd 8e 84 98 bd b9 40 93 3b
       -0.03565476 -0.053502563 -0.07447158 0.0044937995
0002d0 9e fd ce bd 52 ea 05 be 1c 7a a3 bd 4b 53 4c bd
       -0.101069674 -0.13077667 -0.07982275 -0.049884122
0002e0 18 6e a9 bd 16 0f cf bd 87 7d 24 be 1b c3 95 bd
       -0.08272952 -0.10110299 -0.1606351 -0.07312604
0002f0 02 5a 41 bc d1 72 96 3d 74 cf f9 3d fc 3a db 3d
       -0.011801245 0.07346118 0.12197772 0.1070461
000300 41 1b 82 3b ae 78 ff 3c 0e 10 2f bd 2f 11 c5 bc
       0.003970534 0.031185474 -0.04273992 -0.024056045
000310 03 0e 3f 3c 07 b4 e4 bc e7 4e 2e bd 8d f9 02 3b
       0.0116610555 -0.027917875 -0.042555716 0.001998517
000320 6b 23 70 3d 2d bd da 3d c0 41 0d bb 0f a5 ed 3c
       0.058627527 0.10680614 -0.0021554083 0.02900937
000330 65 08 f0 3d 8a 88 40 bd 64 fa 72 bd 04 7d c2 bb
       0.11720351 -0.047005214 -0.059320822 -0.005935313
000340 ad 5b 81 bd 1e ed 2f bd 73 96 71 bd 4b 8f b1 3c
       -0.06316314 -0.042950742 -0.05898137 0.021674773
000350 e6 f2 ba bd 61 98 24 be 6d f7 41 be 88 79 25 be
       -0.091283605 -0.16073753 -0.18942042 -0.16159642
000360 37 9c 37 be d0 8e 77 bc a8 86 9d 3d 9a c7 8e bd
       -0.17930685 -0.015109733 0.07691699 -0.06971665
000370 f7 9e a9 bc ed c1 13 bc e7 07 c8 ba 43 8e df bc
       -0.020705683 -0.0090184035 -0.0015261144 -0.027289515
000380 93 a5 60 bc db bd 7e bb 97 c1 2d 3d cb c8 5f 3c
       -0.013711351 -0.0038870487 0.04242095 0.013658713
000390 b0 c5 05 3d 10 2f 8a 3d 02 66 1e bd 33 93 49 3c
       0.032659233 0.06747258 -0.0386715 0.012303161
0003a0 0d fb a0 bd 70 ec 9a bd a1 e0 cd bd 2f 5a 1d bd
       -0.07860384 -0.07564628 -0.1005261 -0.038416084
0003b0 34 e0 dd bc 41 a0 c6 3d 73 68 0a bd 44 1c 0c bd
       -0.027084447 0.09698535 -0.033791017 -0.034206644
0003c0 f3 5b b5 bd 88 cd 10 bd 61 b7 b9 bd 94 d8 f0 bd
       -0.088554285 -0.03535226 -0.0906818 -0.11760059
0003d0 0c e1 31 be 86 d1 28 bd 9d fb 90 bd 52 f2 16 be
       -0.17371005 -0.041215442 -0.070792414 -0.14740875
0003e0 4b 5e b2 bd 00 4d 1c bd cf 03 c5 3c 4d 56 fa 3b
       -0.08709391 -0.03815937 0.024049668 0.0076396824
0003f0 a0 d9 99 bc 99 1b 06 bd 2f 5d 28 3d 43 20 d4 3c
       -0.01878053 -0.032741163 0.04110449 0.02589429

fc1.bias f4 [128]
000000 8d ba 95 bb 19 64 17 bc 3c 44 37 bd d8 31 08 bc
       -0.0045693577 -0.009240174 -0.044742808 -0.008312665
000010 5e 26 34 bd ec 61 1a bd 40 a8 ee 3b 2c 9e e7 3b
       -0.043981902 -0.03769104 0.0072832406 0.007068416
000020 cc cb b7 3b 48 55 77 bd d1 14 76 bc 59 ca 8e bd
       0.0056090113 -0.060384065 -0.015019611 -0.069721885
000030 3b 2c 35 bc cd 2a 04 bd af 1f 32 3d f5 41 39 bd
       -0.011057909 -0.03226738 0.043487247 -0.045228917
000040 aa d8 d2 bb 5d 78 cf bc 0e 15 70 bd 1b e1 d0 bc
       -0.00643452 -0.025325948 -0.05861383 -0.025497964
000050 e5 3d 10 ba 54 7e 01 bd ba b9 bd bb 74 6b b2 bb
       -0.0005502387 -0.031614617 -0.0057899626 -0.0054449383
000060 db cf 94 bc 62 8f 58 ba dd 9e 19 bd c1 47 02 bd
       -0.01816552 -0.0008261112 -0.03750502 -0.03180671
000070 fe 92 94 bc 5e 3c 2f 3c 80 06 e2 bc 2e b4 24 bd
       -0.018136498 0.010695545 -0.02759099 -0.040210895
000080 07 d9 06 3c 8b 52 32 bc 4a b2 a3 3c f9 be 62 ba
       0.008230454 -0.010883938 0.019982476 -0.0008649673
000090 a1 66 88 bd 81 56 e1 bb 18 d0 92 bc 5b 78 2e bd
       -0.066602 -0.006876767 -0.017921492 -0.04259525
0000a0 6c 1f 69 3b 76 86 8d bd 7c 00 6b 3a f4 bd 0b 3c
       0.0035571707 -0.06910412 0.0008964611 0.008529175
0000b0 eb 73 29 bc 82 b2 84 bd eb e0 24 ba 9a 96 53 bc
       -0.010342578 -0.0647936 -0.0006289619 -0.012914324
0000c0 60 e1 26 bd ca f9 50 3c dd 33 db 3c 62 6b 9a 3b
       -0.040742278 0.012754867 0.026758129 0.004712508
0000d0 55 b6 aa bc 14 6a 6f bc d9 ca bd bb ad 6e 12 bd
       -0.020838896 -0.014612693 -0.0057920036 -0.03575008
0000e0 b7 84 f3 bc fb ea 65 bc e8 ca 70 3b 3d 4d 74 bc
       -0.02972637 -0.0140330745 0.0036742035 -0.014910993
0000f0 be e5 aa 3c d8 dd 39 bd 66 c9 5f bd 00 ec 1b bb
       0.020861503 -0.045377582 -0.054635428 -0.002379179
000100 95 27 f8 bb 7c 95 cb bc 33 81 07 bc 13 2f 38 bd
       -0.007573078 -0.024851553 -0.00827055 -0.04496677
000110 5f ff 90 bd 28 61 9c bb 3b bc 24 bd 9a 52 16 bd
       -0.07079958 -0.004772324 -0.040218573 -0.03669987
000120 a3 e5 a2 bc bc 03 f4 bc b7 87 5f bc 56 72 a4 bc
       -0.01988489 -0.029786937 -0.013643197 -0.02007405
000130 75 c8 21 bd 5e 95 9d 3c a0 f4 22 bd 2f 57 28 bd
       -0.03949781 0.019236263 -0.039784074 -0.04109877
000140 46 e7 62 bd 96 de 96 bc 9e 0e eb ba e3 13 f7 3c
       -0.05539634 -0.018416684 -0.0017933433 0.03016085
000150 21 c4 37 bc 0a 99 79 bd 49 6c 17 3c 1f 82 1a bc
       -0.011216194 -0.060936965 0.009242126 -0.009430437
000160 3f 98 6d bd 16 1d 5b bc 3a 8b 87 bd ff 4e 50 3b
       -0.05800652 -0.013373634 -0.06618352 0.0031785367
000170 be 35 42 bd 33 de d6 3c e4 1f 27 bd 20 1f 91 bd
       -0.047414534 0.026229 -0.040801898 -0.07086015
000180 8f af 33 bc 70 20 da 3c a6 47 d7 bc 42 51 dd bc
       -0.010967149 0.026626796 -0.026279282 -0.027016286
000190 5a 9b 98 bc f4 b5 3b 3c 74 1c b0 3b 7c f8 6f 3c
       -0.018628765 0.011456955 0.0053744856 0.014646646
0001a0 28 41 8d 3b 11 b6 28 bd 87 3a 28 bb 53 e2 bc bb
       0.0043107457 -0.041189257 -0.002566965 -0.0057642846
0001b0 55 a0 6b bc c3 0e 8a bc 90 c1 53 bd 76 ea 58 bc
       -0.014381488 -0.016852742 -0.051698267 -0.013239494
0001c0 d2 bb bc bc f7 b1 a2 bc e6 86 fc 3c 22 39 16 bd
       -0.023038778 -0.01986025 0.030826043 -0.03667558
0001d0 e3 b3 37 3c 80 72 5a bd 06 e0 11 bd 9e 2c 2f 3d
       0.011212322 -0.053331852 -0.035614036 0.04276716
0001e0 da 2d 63 3c 20 cb 8b 3b f1 79 ee 3c 86 fc 2d 3d
       0.013865912 0.0042661577 0.02911088 0.042477153
0001f0 cb 2b e1 bc 22 4a 01 bd 76 df 33 b9 ca d4 d3 bb
       -0.027486702 -0.03156484 -0.00017154016 -0.0064645754

fc2.weight f4 [10, 128]
000000 11 e7 89 bd 35 94 a5 3d 22 ef 01 3e 56 7e de 3c
       -0.067335255 0.08084909 0.12688878 0.027159851
000010 65 fb c3 3d 54 d8 44 bd 0d 1a 0b 3c 0e bf 0a 3e
       0.09569434 -0.04805787 0.008490098 0.13549444
000020 8a 74 b7 3d 31 1f 96 be e7 37 b8 3c d0 42 5b 3e
       0.08957775 -0.29320672 0.022487594 0.21412206
000030 b3 3f 06 bc a0 b9 74 3d d2 c7 91 3d 42 34 59 3c
       -0.008193898 0.05974734 0.07118191 0.013257088
000040 41 c8 5b bd ae f8 6b bd 80 9d 39 3d 01 9b 0c 3e
       -0.053657774 -0.057610206 0.04531622 0.13731004
000050 c7 f3 43 be 2c c2 b1 3d 65 70 14 be e1 ad 30 3c
       -0.19135962 0.086796135 -0.14496 0.010783643
000060 41 a2 8f be bd 9c 6b 3d d0 6b 8b 3c dd ba f9 bc
       -0.28053477 0.057522524 0.017019182 -0.030484611
000070 ab 51 19 be 34 8c ee 3d 6f c0 bc be a5 8a e7 bb
       -0.1497256 0.116478354 -0.36865565 -0.0070660883
000080 35 36 d7 3d 9d d4 02 be c9 7e 1f 3e 27 54 62 3b
       0.10508386 -0.12776418 0.15575708 0.0034535022
000090 71 af 51 be 3c 47 59 3e bc c1 f6 3d 1c 82 2f bb
       -0.20477082 0.2121858 0.12048671 -0.0026780432
0000a0 2b 92 bd 3d e1 d3 05 bf dd 8b 16 3e 3d 41 32 3e
       0.09256395 -0.52276427 0.14701791 0.17407699
0000b0 df d4 cc be 30 4c a1 bc c1 90 3a be 44 4b 3a bd
       -0.40006158 -0.01968965 -0.18219282 -0.045481935
0000c0 e0 95 6d 3d 6f 56 8e bc 96 76 d1 bd 5e bc 2e bd
       0.05800426 -0.0173752 -0.102276966 -0.04266011
0000d0 0a 31 46 be 53 80 08 be 4e 4a 8d bd 62 0a 2a be
       -0.19354644 -0.13330202 -0.06898938 -0.16605523
0000e0 63 52 47 bd 68 c8 38 be 4b 66 52 be bc b5 dd be
       -0.048662554 -0.18045199 -0.20546834 -0.43302715
0000f0 99 43 57 be 19 e3 76 be ee de 79 bd 0c 93 04 bd
       -0.2102188 -0.24110068 -0.061003618 -0.032366797
000100 c9 a7 7d bd 13 46 c3 bd 72 ff b8 3d 8d e8 a9 3c
       -0.06192759 -0.0953485 0.09033097 0.020740772
000110 5d d8 97 3d bf 08 84 be d4 7f e1 3c 7d 6e cf 3c
       0.07414315 -0.25787923 0.027526774 0.02532124
000120 31 67 92 3d 20 72 04 3e 89 53 c5 be 7d 95 b5 bd
       0.071485884 0.1293416 -0.38540295 -0.08866403
000130 e2 40 80 bd ac 17 8a bd 60 f8 bc bc c9 be 1a be
       -0.062623754 -0.06742796 -0.023067653 -0.15111841
000140 d3 a8 4f 3c 70 18 d6 be 32 ed ff bc db f2 aa be
       0.012674528 -0.4181552 -0.031241033 -0.3338841
000150 2e b7 8f 3d 73 e0 86 be 67 f7 f5 bd f6 a5 60 3d
       0.07017361 -0.26343116 -0.12010079 0.054845773
000160 bb 30 35 bc 03 b7 5d 3d a4 cd 84 bc 45 a9 5a be
       -0.0110589815 0.05412961 -0.016211338 -0.21353634
000170 fb 04 f7 bd dc c1 83 3d 0d 57 58 3d 5b 5a 34 bd
       -0.12061497 0.0643346 0.052817393 -0.044031482
000180 b7 1d 2d 3d a6 ab 5e bd df 42 24 be 04 fc 1a be
       0.042264666 -0.054362915 -0.16041134 -0.15135199
000190 7b cf 02 be 63 a7 97 3d 91 9b 01 3e 61 ea 5e be
       -0.1277446 0.07404973 0.12657 -0.21769096
0001a0 27 0d f7 bd 02 25 42 be ae b5 bf be e1 dd 4d 3e
       -0.120630555 -0.1895943 -0.37443298 0.20104171
0001b0 20 d4 3a bd ed eb 2c 3e 84 24 17 be 4c fa 5b 3c
       -0.045612454 0.16886874 -0.14760023 0.013426375
0001c0 0d 56 1d 3e a6 0e 82 3c 82 05 47 3d 97 7e 11 be
       0.15364857 0.015876126 0.048589237 -0.14208446
0001d0 b0 4d 41 bd 25 53 a4 bd 84 55 d2 3d 2a 10 e7 bd
       -0.04719323 -0.08023671 0.10270217 -0.1128238
0001e0 87 11 9c 3d 96 63 e0 3d 1d e7 ab 3c 7e f4 8f 3d
       0.076205306 0.109564945 0.020984227 0.07029055
0001f0 c9 c2 5a 3e 72 d8 66 3b 8a e7 00 3b e3 c7 0a 3e
       0.21363367 0.0035224226 0.0019669258 0.13552813
000200 a8 44 0a bd ac 2a 9e 3e d5 04 87 be 85 2f 9f bd
       -0.033756882 0.3089193 -0.26370874 -0.077727355
000210 23 5c ff bd ed 30 b2 3d 29 97 b4 be 30 d8 8e bd
       -0.124687456 0.08700738 -0.35271576 -0.06974828
000220 c3 76 e4 3d bc cb ff 3d bb 5b 21 bb 54 be b0 3d
       0.111554645 0.12490031 -0.0024621326 0.08630052
000230 bd 24 21 be 39 af 6a 3b 3f aa 2b be 69 98 c2 3d
       -0.15736671 0.0035810007 -0.16764162 0.09501726
000240 e9 0a 04 3c d2 96 7f 3c 2d 39 d3 bd e2 dc ca bd
       0.008059242 0.015599923 -0.1031364 -0.09905411
000250 e9 62 23 bd 65 ff 43 be c1 c9 37 3d 12 49 0f bb
       -0.03988925 -0.19140394 0.044870142 -0.0021863622
000260 a7 64 9e 3d 49 18 4a be c4 50 b8 3d 91 e9 79 bc
       0.07734042 -0.19735827 0.0899978 -0.0152534405
000270 4d 08 15 be 38 92 42 3c 0a f9 3b 3e 87 79 83 3c
       -0.14553948 0.011875682 0.1835672 0.01604916
000280 ac dc 48 3d 31 e3 14 3c e9 5d a4 bd 31 e0 22 be
       0.049038574 0.00908737 -0.080257244 -0.15905835
000290 f3 52 16 3d bf cf 4d be 2f 15 3e be 7d b4 76 be
       0.0367002 -0.2009878 -0.18562768 -0.24092288
0002a0 fe 1c 4c be 1d ab af 3d 5c 60 48 be 2f 4b 6f be
       -0.19932935 0.08577559 -0.19568008 -0.23368524
0002b0 41 df 17 be ae 49 42 bd 7f 21 a6 bd d3 9b ed 3c
       -0.14831258 -0.047433548 -0.081118576 0.029004967
0002c0 7e 04 12 3c 63 25 8a 3d 8e 91 82 ba 26 b8 75 3d
       0.008912204 0.06745412 -0.0009961592 0.05999007
0002d0 15 86 aa 3d 3f 37 ec 3d 4b 80 8a 3d c4 48 e2 bd
       0.08326355 0.11533975 0.06762751 -0.11049035
0002e0 15 a6 bd bc b1 4a 5f 3e 60 02 85 3d 09 27 31 be
       -0.023150483 0.21805836 0.064945936 -0.17300047
0002f0 f1 01 68 3e dd 4c 37 be 84 ae 0a 3d 50 aa 96 3e
       0.2265699 -0.17900415 0.033857837 0.29426813
000300 0a 75 10 be f8 da f9 bd 3a f2 a4 be 2f e8 2e 3e
       -0.14107147 -0.12199968 -0.32216054 0.17080759
000310 91 36 b6 bc d7 7f f4 bd 47 ea f7 3d c2 55 37 be
       -0.022242816 -0.11938446 0.12105232 -0.17903808
000320 9e b8 b6 bc b8 40 96 bd 6c b9 3e 3d de fd 1e bd
       -0.02230483 -0.07336563 0.04656355 -0.038816325
000330 c8 b9 34 3e 6b 00 17 be 84 9e 5b 3e d8 43 eb 3d
       0.17648995 -0.14746253 0.21447188 0.114875495
000340 d5 a1 13 3e 26 75 95 be d6 f0 06 3e 68 83 77 3c
       0.14417203 -0.2919094 0.13177809 0.015107013
000350 d4 e9 ce 3d bb 53 12 3e f9 79 1c 3e bf 95 9d be
       0.10103193 0.14289753 0.15280904 -0.3077831
000360 c0 bb 06 3e 41 6e 86 bd 07 bd 01 3e 0d 02 17 bc
       0.13157558 -0.06563998 0.12669764 -0.009216798
000370 d2 7e fe bb 7d 88 76 3e e0 a5 31 be d1 57 65 bd
       -0.007766583 0.24075504 -0.17348433 -0.05599195
000380 9e a1 6e be 56 06 90 bd 3a 9a cc 3d c0 02 7e bc
       -0.2330384 -0.070324585 0.09990354 -0.015503585
000390 bb a5 26 bd 8c c0 f0 bc 4c f0 de bc 13 f3 91 3d
       -0.040685397 -0.029388689 -0.027214192 0.07126441
0003a0 db 5e 91 3e 2f 2d 67 3d de 1b df 3d 3e 36 fc bb
       0.2839268 0.056439575 0.10893987 -0.007696896
0003b0 8d f4 2b 3d 28 ab 32 3d aa ae 09 3d b3 d8 83 bc
       0.04198127 0.04362026 0.03361384 -0.016094541
0003c0 4d 87 42 3d 69 9b 66 be 81 c7 ad 3e ec 03 04 be
       0.047492314 -0.22520222 0.33941272 -0.12892121
0003d0 d9 41 8c bc 4b b0 ae 3d 5a 94 0c be ba e4 df 3b
       -0.017121242 0.08529719 -0.13728467 0.0068326863
0003e0 6d f8 c2 bc 9f 02 3f bd 7d 69 19 3d b1 eb 7b bd
       -0.0238001 -0.04663336 0.037454117 -0.06150407
0003f0 55 a1 40 be 9a c0 04 be fd d3 8b bd 93 bc 28 be
       -0.18811543 -0.12964097 -0.06827543 -0.16478185

fc2.bias f4 [10]
000000 c1 44 71 bd 81 f0 02 bd b1 10 db bd b2 6e 49 3d
       -0.05890346 -0.031967644 -0.10696543 0.049177833
000010 71 9b 0b 3d 5e e8 18 bd e2 11 20 3d 69 cd ab 3a
       0.034083787 -0.037330978 0.039079554 0.0013107482
000020 5a 45 7f 3e 2b 99 89 3c
       0.249288 0.016796669
