models/mlp_mnist_fp16.pth (torch, 205704 bytes, 4 tensors)

fc1.weight f2 [128, 784]
0	0x9f36	-0.007042
1	0xa945	-0.04117
2	0xa226	-0.01201
3	0xa83f	-0.03317
4	0xa83f	-0.03317
5	0xa85f	-0.03415
6	0xa835	-0.03287
7	0xa9c1	-0.04495
8	0xa6a0	-0.02588
9	0x19f3	0.002905
10	0xa4aa	-0.01822
11	0xa198	-0.010925
12	0xa81b	-0.03207
13	0xa8c3	-0.0372
14	0xa83b	-0.03305
15	0xa770	-0.02905
16	0xa947	-0.04123
17	0xac00	-0.0625
18	0x187b	0.002188
19	0xa7ce	-0.03049
20	0xaaa1	-0.0518
21	0xaa11	-0.0474
22	0xa664	-0.02496
23	0xab4b	-0.05698
24	0xaa8b	-0.05112
25	0x14ae	0.0011425
26	0x9941	-0.002565
27	0xaa89	-0.05106
28	0xa897	-0.03586
29	0xa65c	-0.02484
30	0xa9e9	-0.04617
31	0xa752	-0.0286
32	0xa508	-0.01965
33	0xa8a3	-0.03622
34	0xab65	-0.05777
35	0x9d00	-0.004883
36	0xa228	-0.012024
37	0xa42d	-0.01631
38	0xa86d	-0.03458
39	0xa476	-0.01743
40	0x9b55	-0.00358
41	0x9fc4	-0.007584
42	0xa75a	-0.02872
43	0xa6b6	-0.02621
44	0xa45d	-0.01704
45	0xaae3	-0.0538
46	0x1766	0.001806
47	0xa24c	-0.0123
48	0xaaeb	-0.05405
49	0x9cea	-0.0048
50	0xabb3	-0.06015
51	0xa4d2	-0.01883
52	0xa8f3	-0.03867
53	0xa45e	-0.01706
54	0xa955	-0.04166
55	0xabcf	-0.061
56	0xabc9	-0.06082
57	0xa853	-0.03378
58	0xab1f	-0.05563
59	0xa8f1	-0.0386
60	0xaa79	-0.05057
61	0x9fe9	-0.007725
62	0xa919	-0.03983
63	0xabc1	-0.06058
64	0xa835	-0.03287
65	0xa96a	-0.0423
66	0xab26	-0.05585
67	0xab52	-0.0572
68	0xa913	-0.03964
69	0xacea	-0.0768
70	0x9c92	-0.004463
71	0xa712	-0.02762
72	0xa70b	-0.02751
73	0xaa33	-0.04843
74	0x2028	0.00812
75	0xa423	-0.01616
76	0x8ef2	-0.000424
77	0x9d2c	-0.00505
78	0xa494	-0.01788
79	0xa437	-0.01646
80	0xa85d	-0.0341
81	0xa77c	-0.02924
82	0x1c0f	0.003963
83	0xa001	-0.00782
84	0xa6da	-0.02676
85	0x1d0c	0.00493
86	0xa748	-0.02844
87	0xab6f	-0.05807
88	0xa464	-0.01715
89	0x1c3e	0.004143
90	0xa85c	-0.03406
91	0x1be7	0.003859
92	0x240f	0.01585
93	0xa7c0	-0.03027
94	0xa575	-0.02132
95	0x25ad	0.02217
96	0x2759	0.0287
97	0x9e7e	-0.00634
98	0x26d6	0.0267
99	0x27c5	0.03035
100	0x28eb	0.03842
101	0x2191	0.01087
102	0x1c16	0.00399
103	0xa7b8	-0.03015
104	0xa52e	-0.02023
105	0xa97d	-0.04288
106	0xad83	-0.0861
107	0xa9db	-0.04575
108	0xa818	-0.03198
109	0xa90f	-0.03952
110	0xa9df	-0.04587
111	0xa979	-0.04276
112	0xa03a	-0.008255
113	0x18db	0.00237
114	0xabb7	-0.06027
115	0x0bb9	0.0002357
116	0xa9ec	-0.04626
117	0x940d	-0.000989
118	0x2443	0.01665
119	0x2a5a	0.04962
120	0x24ab	0.01823
121	0xa08b	-0.00887
122	0x20bc	0.00925
123	0x2535	0.02034
124	0x2aad	0.05215
125	0x2960	0.042
126	0x2836	0.0329
127	0x26d8	0.02673
128	0x2362	0.01442
129	0x280a	0.03156
130	0x2c08	0.063
131	0x2a71	0.05032
132	0xa8f3	-0.03867
133	0x2335	0.01408
134	0x2995	0.0436
135	0xabeb	-0.06186
136	0xa547	-0.02061
137	0xa82d	-0.03262
138	0xa873	-0.03476
139	0xa24c	-0.0123
140	0xa375	-0.014565
141	0xa85f	-0.03415
142	0x9d14	-0.00496
143	0x9a70	-0.003143
144	0xa662	-0.02493
145	0x2eb1	0.10455
146	0x2c9f	0.0722
147	0xa080	-0.00879
148	0x22a0	0.01294
149	0xa6dd	-0.02681
150	0x2725	0.02791
151	0x11ed	0.0007234
152	0x2a6e	0.05023
153	0xa5a0	-0.02197
154	0x2954	0.04163
155	0xa567	-0.0211
156	0x9d75	-0.00533
157	0xa6c9	-0.0265
158	0xa976	-0.04266
159	0xa665	-0.02498
160	0xaa9d	-0.05167
161	0xa50c	-0.01971
162	0x834c	-5.03e-05
163	0x2957	0.04172
164	0x216c	0.01059
165	0x22b5	0.0131
166	0xa714	-0.02765
167	0xa6cc	-0.02655
168	0xabb7	-0.06027
169	0xa404	-0.01569
170	0x961e	-0.001493
171	0x1e24	0.005997
172	0x256e	0.02121
173	0x9db0	-0.005554
174	0x2585	0.02156
175	0xa29b	-0.0129
176	0x2355	0.01432
177	0x2738	0.0282
178	0x2dae	0.08875
179	0x2dfe	0.0936
180	0x1d9f	0.00549
181	0x2b70	0.0581
182	0x27b7	0.03014
183	0x2a34	0.04846
184	0x2a5f	0.04977
185	0x2893	0.03574
186	0x2a10	0.04736
187	0x9cf3	-0.004833
188	0x296f	0.04245
189	0x904d	-0.000525
190	0xa7cd	-0.03047
191	0x2258	0.01239
192	0x268a	0.02554
193	0xa40c	-0.01581
194	0xa923	-0.04013
195	0xaa87	-0.051
196	0xaba5	-0.05972
197	0x1973	0.00266
198	0xa397	-0.014824
199	0x9d1e	-0.004997
200	0x9de1	-0.00574
201	0xa377	-0.01458
202	0xaad0	-0.05322
203	0xa672	-0.02518
204	0x1dab	0.005535
205	0x242f	0.01634
206	0x2b10	0.05518
207	0x240b	0.0158
208	0x2c7f	0.07025
209	0x2cb7	0.07367
210	0x2dc9	0.0904
211	0x2d89	0.0865
212	0x2a7e	0.05072
213	0x2a2b	0.0482
214	0x23b0	0.015015
215	0xa620	-0.02393
216	0x2e1c	0.09546
217	0x28e9	0.03836
218	0x2601	0.02345
219	0xa508	-0.01965
220	0xa257	-0.01238
221	0x20d1	0.00941
222	0x9f63	-0.007214
223	0xa92a	-0.04034
224	0xa859	-0.03397
225	0xa544	-0.02057
226	0xa947	-0.04123
227	0x212e	0.01012
228	0xa69e	-0.02585
229	0xa234	-0.012115
230	0xad78	-0.08545
231	0xad2e	-0.08093
232	0x209b	0.008995
233	0xa465	-0.01717
234	0x278c	0.02948
235	0x2d86	0.0863
236	0x2d17	0.0795
237	0x2c7c	0.07007
238	0x2f43	0.11346
239	0x2a05	0.04703
240	0x2962	0.04205
241	0xa32a	-0.01399
242	0x2906	0.03925
243	0xa4ee	-0.01926
244	0x2dcb	0.0905
245	0x1577	0.001334
246	0x2b26	0.05585
247	0xac6f	-0.0693
248	0xa7cc	-0.03046
249	0xa3b2	-0.01503
250	0xa1ab	-0.01107
251	0xa95c	-0.04187
252	0xa8c9	-0.03738
253	0xaa09	-0.04715
254	0x9c6a	-0.00431
255	0xa4b6	-0.0184

fc1.bias f2 [128]
0	0x2da7	0.0883
1	0xa04a	-0.00838
2	0x2337	0.01409
3	0x238e	0.014755
4	0xa73d	-0.02827
5	0x1af7	0.0034
6	0x2af9	0.05447
7	0x2a41	0.04886
8	0x23e9	0.01545
9	0x2915	0.0397
10	0x2128	0.01007
11	0x2936	0.0407
12	0xa330	-0.01404
13	0x24b8	0.01843
14	0x2988	0.0432
15	0x2096	0.00896
16	0x21ce	0.01134
17	0x2e57	0.09906
18	0x2167	0.01055
19	0xa050	-0.00842
20	0xa765	-0.02888
21	0x2626	0.02402
22	0x9d8b	-0.005413
23	0x2669	0.02504
24	0x274d	0.02852
25	0x2210	0.01184
26	0xa898	-0.0359
27	0x9f79	-0.007298
28	0xa61f	-0.02391
29	0xaa62	-0.04987
30	0x9fc8	-0.0076
31	0xa989	-0.04324
32	0xa65a	-0.02481
33	0x266a	0.02505
34	0x2423	0.01616
35	0x2a35	0.0485
36	0x2c88	0.0708
37	0x18d6	0.002361
38	0x28b1	0.03665
39	0x2569	0.02113
40	0xaa67	-0.05002
41	0x9fc9	-0.007603
42	0x1d41	0.00513
43	0x26da	0.02676
44	0x2413	0.01591
45	0x1ce1	0.004765
46	0x2c59	0.06793
47	0x20c8	0.00934
48	0xa276	-0.01262
49	0xa478	-0.01746
50	0x2889	0.03543
51	0x2202	0.011734
52	0x2a00	0.04688
53	0x26cf	0.0266
54	0x2fbe	0.121
55	0x1f9c	0.00743
56	0x2537	0.02037
57	0x279a	0.0297
58	0x2711	0.0276
59	0xa6d4	-0.02667
60	0xa223	-0.011986
61	0xa043	-0.00832
62	0xa556	-0.02084
63	0x99e2	-0.002872
64	0x1e08	0.00589
65	0xa92e	-0.04047
66	0x279c	0.02972
67	0x2767	0.02892
68	0x21de	0.01146
69	0xa116	-0.00993
70	0x9798	-0.001854
71	0xa4b5	-0.01839
72	0x1b27	0.003492
73	0x21f7	0.01165
74	0xa5a1	-0.02199
75	0x2475	0.01741
76	0x284c	0.03357
77	0x2ab3	0.05234
78	0x2619	0.02382
79	0x9a68	-0.003128
80	0xa863	-0.03427
81	0xa696	-0.02573
82	0x9f18	-0.006927
83	0xa93a	-0.04083
84	0xaa89	-0.05106
85	0xa9ec	-0.04626
86	0x2735	0.02815
87	0xa48b	-0.01775
88	0x2e78	0.1011
89	0xac0e	-0.06335
90	0x2486	0.01767
91	0xa4ac	-0.01825
92	0xa1f9	-0.011665
93	0xaa20	-0.04785
94	0xa4fc	-0.01947
95	0x2495	0.0179
96	0x9a64	-0.00312
97	0x03a4	5.555e-05
98	0x2424	0.01617
99	0x28a8	0.03638
100	0x255d	0.02095
101	0xa8ab	-0.03647
102	0x2d5f	0.0839
103	0x2b4a	0.05695
104	0x2b82	0.05865
105	0xac80	-0.0703
106	0x2299	0.012886
107	0x2b38	0.0564
108	0x10a9	0.000569
109	0xa8ac	-0.0365
110	0x9dc8	-0.005646
111	0x2109	0.009834
112	0xa990	-0.04346
113	0xa13c	-0.01022
114	0xac1e	-0.06433
115	0x2915	0.0397
116	0x227b	0.01266
117	0xa9e2	-0.04596
118	0x1901	0.002443
119	0xa710	-0.02759
120	0xa458	-0.01697
121	0x1043	0.00052
122	0x2260	0.01245
123	0x24d2	0.01883
124	0x2ab8	0.0525
125	0x28af	0.0366
126	0x2bcb	0.06088
127	0x19d2	0.002842

fc2.weight f2 [10, 128]
0	0x20df	0.009514
1	0xabbc	-0.06042
2	0x2b61	0.05765
3	0xac45	-0.0667
4	0xabb1	-0.0601
5	0xa7a9	-0.02992
6	0x2c11	0.06354
7	0xb05c	-0.1362
8	0x2bc2	0.0606
9	0xac55	-0.0677
10	0xa45d	-0.01704
11	0xaf03	-0.10956
12	0xb003	-0.1254
13	0xabdc	-0.0614
14	0x2ce2	0.0763
15	0x22ff	0.013664
16	0xa81a	-0.03204
17	0xa3ae	-0.015
18	0xa00f	-0.00793
19	0xabd5	-0.0612
20	0xaa79	-0.05057
21	0x2df2	0.0929
22	0x2edd	0.10724
23	0xa8cd	-0.0375
24	0x2cef	0.0771
25	0xace4	-0.0764
26	0x3017	0.1278
27	0xb051	-0.1349
28	0x2f86	0.11755
29	0x2aa7	0.05197
30	0xa94d	-0.0414
31	0x2e3b	0.09735
32	0x2311	0.0138
33	0xadf2	-0.0929
34	0x2d9d	0.0877
35	0x29da	0.04572
36	0x0f1c	0.000434
37	0x3000	0.125
38	0x2d81	0.086
39	0xabcf	-0.061
40	0x292f	0.0405
41	0xa2f8	-0.01361
42	0x27a7	0.02989
43	0x2cb0	0.07324
44	0x2d29	0.0806
45	0x2cff	0.07806
46	0x2d0e	0.079
47	0xa84a	-0.0335
48	0x21b1	0.011116
49	0x2a63	0.0499
50	0xa773	-0.0291
51	0x2a31	0.04837
52	0x2ac8	0.05298
53	0xae65	-0.0999
54	0x9d36	-0.00509
55	0xa54d	-0.0207
56	0x2f97	0.1186
57	0xa66f	-0.02513
58	0xaa68	-0.05005
59	0xac51	-0.06744
60	0x2a6e	0.05023
61	0x2eaf	0.10443
62	0x291c	0.03992
63	0x2dd0	0.0908
64	0x2c88	0.0708
65	0xaf9e	-0.119
66	0x9e28	-0.006012
67	0xac1a	-0.0641
68	0xaf20	-0.1113
69	0xad9d	-0.0877
70	0xa196	-0.01091
71	0xad75	-0.08527
72	0x2dd1	0.0909
73	0x2cac	0.073
74	0x9f55	-0.00716
75	0xac90	-0.0713
76	0x2735	0.02815
77	0xaebf	-0.1054
78	0x2aea	0.05402
79	0x2bdd	0.06143
80	0x2e1e	0.0956
81	0xa94b	-0.04135
82	0x286f	0.03464
83	0x1cda	0.004738
84	0xac0b	-0.0632
85	0x2b84	0.05872
86	0xae5f	-0.09955
87	0x2ba9	0.05984
88	0xae4c	-0.0984
89	0x9bfc	-0.003899
90	0x2b16	0.05536
91	0x28c6	0.0373
92	0xa415	-0.01595
93	0x2c8a	0.0709
94	0x2dd9	0.0914
95	0x94b5	-0.001149
96	0xada1	-0.08795
97	0x2ffa	0.12463
98	0x226d	0.01255
99	0x24f7	0.0194
100	0xa7d1	-0.03053
101	0x283a	0.03302
102	0x1d2f	0.005062
103	0xa2c4	-0.013214
104	0x2a98	0.0515
105	0xab57	-0.05734
106	0x2d2f	0.081
107	0x2a7b	0.05063
108	0x2edd	0.10724
109	0xa825	-0.03238
110	0xac94	-0.07153
111	0xae18	-0.0952
112	0x2faf	0.12006
113	0x2ee9	0.108
114	0xa774	-0.02911
115	0xab7c	-0.05847
116	0xabf5	-0.06216
117	0x2ccc	0.07495
118	0xa40f	-0.01585
119	0x2cac	0.073
120	0xad61	-0.08405
121	0x2caf	0.0732
122	0xaefc	-0.10913
123	0xa893	-0.03574
124	0x2c1d	0.0643
125	0x22a0	0.01294
126	0x2dc6	0.0902
127	0xad4b	-0.0827
128	0x2717	0.0277
129	0xae8f	-0.1025
130	0xac2c	-0.0652
131	0x2525	0.0201
132	0x2664	0.02496
133	0x2972	0.04254
134	0xa84b	-0.03354
135	0xa579	-0.02138
136	0x212a	0.010086
137	0xa243	-0.01223
138	0x2b03	0.05478
139	0x2cbf	0.07416
140	0x2caf	0.0732
141	0x2d24	0.0803
142	0x2ccf	0.07513
143	0x9627	-0.001502
144	0x2a58	0.04956
145	0xaa7e	-0.05072
146	0x2893	0.03574
147	0x292c	0.0404
148	0xb037	-0.1317
149	0x2d1a	0.0797
150	0xae39	-0.0972
151	0x1ea7	0.006496
152	0x294b	0.04135
153	0xa990	-0.04346
154	0xa83c	-0.03308
155	0x2491	0.01784
156	0x2ad5	0.05338
157	0x2ae9	0.054
158	0x2a2c	0.04822
159	0xaf2c	-0.11206
160	0xac15	-0.0638
161	0xa26d	-0.01255
162	0x2e2f	0.0966
163	0xabeb	-0.06186
164	0x3049	0.1339
165	0xaf0a	-0.11
166	0x15c7	0.0014105
167	0x1d4a	0.005165
168	0xa511	-0.01979
169	0xad7c	-0.0857
170	0xac43	-0.0666
171	0x2f99	0.1187
172	0xa535	-0.02034
173	0xac41	-0.06647
174	0xac0f	-0.0634
175	0x9c87	-0.00442
176	0xad9a	-0.0875
177	0x2afc	0.05457
178	0x2783	0.02934
179	0x2314	0.013824
180	0x9d0f	-0.00494
181	0x2c03	0.0627
182	0xac67	-0.0688
183	0xadf5	-0.0931
184	0xaec2	-0.1056
185	0xafa0	-0.11914
186	0x1f97	0.007412
187	0x2d4f	0.08295
188	0xabfc	-0.06238
189	0xa91b	-0.0399
190	0xaf7f	-0.1171
191	0xabc6	-0.06073
192	0xb002	-0.1252
193	0x2ccc	0.07495
194	0xa067	-0.0086
195	0xa8e4	-0.0382
196	0x2c90	0.0713
197	0x2824	0.03235
198	0x2e0c	0.0945
199	0xab60	-0.05762
200	0xad50	-0.083
201	0xab25	-0.05582
202	0xaa85	-0.05093
203	0x255f	0.02098
204	0xae8a	-0.1022
205	0xa651	-0.02467
206	0xaa4b	-0.04916
207	0x2cdd	0.076
208	0xaaaa	-0.05206
209	0xae4d	-0.09845
210	0xae25	-0.096
211	0x2fa9	0.1197
212	0x26d4	0.02667
213	0xa67c	-0.02533
214	0xad9c	-0.08765
215	0xa6d2	-0.02664
216	0xa92b	-0.04037
217	0xa852	-0.03375
218	0x2a4d	0.04922
219	0x9472	-0.001085
220	0xabf7	-0.06223
221	0x2d72	0.0851
222	0xaca2	-0.0724
223	0xa624	-0.02399
224	0x2a57	0.04953
225	0xab34	-0.05627
226	0x2c58	0.0679
227	0xabde	-0.06146
228	0xa082	-0.008804
229	0xaa37	-0.04855
230	0xaf74	-0.11646
231	0x280e	0.03168
232	0xadd8	-0.0913
233	0x2dd8	0.0913
234	0x2cb7	0.07367
235	0x2812	0.0318
236	0x30a7	0.1454
237	0xac0b	-0.0632
238	0x9f70	-0.007263
239	0x2759	0.0287
240	0x293e	0.04095
241	0x2c25	0.06476
242	0x2e2f	0.0966
243	0x1b42	0.003544
244	0x2e7a	0.1012
245	0x2de1	0.09186
246	0xac05	-0.0628
247	0xad30	-0.08105
248	0xa987	-0.04318
249	0xae96	-0.1029
250	0x2ba3	0.05966
251	0x2dac	0.0886
252	0xad77	-0.0854
253	0x2ef7	0.1088
254	0x30af	0.1464
255	0x2e09	0.0943

fc2.bias f2 [10]
0	0xab1e	-0.0556
1	0x25f8	0.02332
2	0x29d2	0.04547
3	0xa8da	-0.0379
4	0x2ba3	0.05966
5	0x2c1f	0.0644
6	0x28be	0.03705
7	0x29cc	0.0453
8	0xaa43	-0.04892
9	0xacd5	-0.0755
