models/mlp_mnist.pth (torch, 409184 bytes, 4 tensors)

fc1.weight f4 [128, 784]
000000 bf d5 da 3b bf 99 b6 bc 0b d5 05 3d d2 e7 41 bc
       0.0066783126 -0.022290109 0.032673877 -0.011835055
000010 43 76 1c 3d b5 a0 cc ba 5d 44 ba 3c 9c 50 12 3d
       0.03819872 -0.0015611859 0.022737676 0.035721406
000020 85 cf a7 bc 9b 7d 2c 3d b6 d6 65 3c d5 a9 89 3c
       -0.020484695 0.042111974 0.014028242 0.016804615
000030 85 d5 07 3d d4 d9 35 3d 32 2e 52 3c 13 d5 31 3d
       0.033162612 0.04439719 0.012828397 0.043416094
000040 fc 89 59 3c 3d 6c e2 3c 36 ab 37 3c 60 78 45 3c
       0.013277527 0.027639503 0.011210253 0.012052625
000050 f2 03 35 3d fe 2e 1d 3d b7 52 a7 bc 30 e1 54 bc
       0.044193216 0.038374893 -0.020425184 -0.012993142
000060 7f 3c 5c bc 82 77 36 bc cd 75 ac bc d7 e4 a3 3c
       -0.013442158 -0.011136891 -0.021052266 0.02000658
000070 19 0e e4 bb d3 74 bb bb d1 d8 24 3d bd 93 58 bb
       -0.0069596884 -0.0057207136 0.040245835 -0.0033047043
000080 d5 76 a8 3b 8f 34 93 bc f6 1d 7c 3c 29 49 f2 bb
       0.005141119 -0.017969398 0.015388003 -0.0073939753
000090 24 16 2e 3d c9 d4 14 3d 99 4e fb 3c 22 91 30 bc
       0.042501584 0.03633574 0.030677127 -0.01077679
0000a0 0f ac a8 bc 63 03 2c 3d d2 17 61 bc 93 3f 19 3d
       -0.020589856 0.041995417 -0.013738589 0.037414145
0000b0 49 88 fd 3c 6c 69 ef ba 26 a9 12 bc 6b 19 b9 bc
       0.030948775 -0.0018265671 -0.008951461 -0.022595128
0000c0 1f d5 1f 3d 5b 83 27 3c ce 8f 3b bc 11 0a e1 bb
       0.039021607 0.010224189 -0.01144786 -0.006867655
0000d0 a9 66 92 bc 70 ba 0a 3d 89 02 88 bc fe 44 96 3c
       -0.017871218 0.033869207 -0.016602771 0.018343445
0000e0 59 22 2e 3d 8c b1 34 3d 5f c0 27 3d 7f 50 2d 3c
       0.042513225 0.044114634 0.040954944 0.010578274
0000f0 f7 bc c8 bb 09 a5 94 bb fb b8 c0 bc 56 10 4b 3c
       -0.006126042 -0.0045362753 -0.023525706 0.0123940315
000100 ef 63 a7 bc 65 20 34 3d 4d b9 bf ba b1 44 76 3b
       -0.020433394 0.043976206 -0.0014627367 0.0037577564
000110 93 1f 75 bc 9b dd db 3c 2d e7 a8 bc 28 48 13 3c
       -0.014961141 0.026839068 -0.020618046 0.008989371
000120 0b 5a ac 3b 49 fc 3a 3c ce 78 7b 3c 78 e1 06 3d
       0.0052597574 0.0114126885 0.015348626 0.032929868
000130 41 21 cf bc c4 93 64 3b 82 6d 94 3c 41 fa 1f 3d
       -0.025284411 0.0034878114 0.018118624 0.03905702
000140 5b da b0 bc 44 92 47 3c 37 a9 79 bc e6 eb 30 3d
       -0.021588495 0.012180869 -0.015238098 0.04319372
000150 93 cf d7 bb 02 75 0a 3d 33 c5 a7 bc c2 94 3c bc
       -0.006586024 0.033802994 -0.020479774 -0.011510076
000160 fd 92 ab bc dd c9 13 3d 77 bb 9b b9 2f 2e cc 3b
       -0.020944113 0.036081184 -0.00029703576 0.0062310915
000170 3d 70 ec 3c 93 55 a9 bb 24 de 9e bc 77 da 1c 3d
       0.028862113 -0.005167672 -0.019393034 0.03829428
000180 34 40 a6 3c 5d e5 15 3d df c1 a3 3c 94 0e ff 3c
       0.020294286 0.03659569 0.019989906 0.031134881
000190 35 cb 12 3d 43 c1 97 3c 5b e9 eb 3b ff ac bb bb
       0.035838325 0.018524772 0.007199449 -0.00572741
0001a0 f9 b9 24 3d af 57 b3 bc 13 49 f9 3b c0 b5 44 bb
       0.04021642 -0.021892397 0.007607588 -0.0030015558
0001b0 08 2c ae 39 77 5c f8 3b eb 4f af bc c3 4b a2 bc
       0.00033220672 0.007579382 -0.021400413 -0.019811517
0001c0 00 86 02 bc 56 f1 26 3b 91 16 b4 bc bf 88 be 3c
       -0.007966518 0.0025473437 -0.021983417 0.023258565
0001d0 0b ea a8 3c de e6 bd 3a d5 17 ad 3c 8f ec c8 bc
       0.020619413 0.001448836 0.021129528 -0.024526862
0001e0 ec 9f a7 bb 9d 7c 05 3c 16 d0 d1 3c 66 d6 da bc
       -0.0051154997 0.008147386 0.025611918 -0.026713561
0001f0 7c d4 2b 3c 52 cb d4 bc ee 31 0d bb a8 e9 b6 3c
       0.010487672 -0.025975857 -0.0021544653 0.022328213
000200 0e f5 f2 bc 0e 89 19 bd c0 33 9f 3c 9c cc 97 bc
       -0.029657867 -0.03748422 0.019433856 -0.018530183
000210 14 bd e8 bb a3 f2 8c bc 37 4d 89 b9 7f fa 9e 3c
       -0.007102618 -0.017205542 -0.00026188206 0.019406555
000220 1c ed 53 3c 6f 51 9f bc 56 2f 4a bc de a6 03 b9
       0.012934949 -0.01944801 -0.012340387 -0.00012555296
000230 ec 8e 88 3c 1b 5c 3f bb df bb b1 bc f2 f5 04 3d
       0.016669713 -0.0029199186 -0.02169603 0.032461114
000240 61 56 05 3d 7c d0 08 3c 20 8a 9a bb c7 72 26 3d
       0.03255308 0.008350488 -0.004716173 0.040636804
000250 f3 a3 db bc f5 e7 b0 bb d3 87 86 3c 79 03 b7 3a
       -0.026811576 -0.005398745 0.016422188 0.0013962827
000260 1a 5c 7f bc 18 e6 3b bd 22 ec c4 3c ea 82 c3 3c
       -0.015585924 -0.04587373 0.024038378 0.023866136
000270 24 4a 2e 3c 56 2e ba 3a ea 47 09 bd 2d 80 54 3c
       0.010637794 0.0014204483 -0.03351585 0.012970013
000280 63 57 d0 3c d0 04 cb 3c b3 29 e1 3c 79 32 ac 3c
       0.025432294 0.024782568 0.027485704 0.021020161
000290 04 2c 4d 3c d9 83 10 3c 73 1e 8c bc 0d 82 b8 3c
       0.012522701 0.008820497 -0.017104363 0.02252295
0002a0 23 80 df 3c 76 cc 0c 3c ea 3c 00 3b 77 b3 02 3d
       0.02728278 0.008593669 0.0019567558 0.031909432
0002b0 53 1e 57 3c 9c 0e 06 3d 59 f9 2c 3b 03 39 c2 bb
       0.013129788 0.032728776 0.002639374 -0.0059272065
0002c0 f8 ef 1b bc d3 71 ac ba 75 b5 0e 3c 4e 62 0a bd
       -0.009517662 -0.0013156481 0.008710255 -0.033785157
0002d0 44 4f 83 3c f9 b8 11 3a 3e c5 e7 bc 23 78 d1 3c
       0.016029008 0.0005558874 -0.028292295 0.025569981
0002e0 d4 f9 98 3c 85 81 9f bb 61 7f 69 3a a8 e5 69 bc
       0.018673815 -0.004867735 0.00089072256 -0.014275946
0002f0 be 59 eb bb 72 40 02 bd 02 18 9f 3c 61 97 a4 3c
       -0.007182329 -0.03179974 0.019420628 0.020091714
000300 60 9f 33 3d 04 90 7d bb b9 04 fa 3c f7 eb a4 bb
       0.043853164 -0.0038690576 0.03051983 -0.005033012
000310 81 ed 98 3b 85 94 ca 3c 23 88 b9 3c c0 31 e0 3c
       0.0046669845 0.024729023 0.022647923 0.027367473
000320 e3 c5 af 3b 87 f4 0e 3d 10 92 45 3a 3a 7a 29 3d
       0.005364166 0.03490117 0.00075367186 0.04137633
000330 78 f2 84 3c 26 ab ff bb e1 ef eb 3c f2 1a ba bb
       0.0162289 -0.007802385 0.028800907 -0.0056794817
000340 3f 0a 44 3c 72 67 83 3c 9b 8b b5 3c bf b1 1a bc
       0.0119653335 0.016040538 0.022161296 -0.009441792
000350 95 3d 4d 3b d1 53 61 bc 59 ac 97 3c 88 99 08 ba
       0.0031317223 -0.013752894 0.018514799 -0.0005210866
000360 5f 16 61 3c 16 73 91 3c e2 63 b9 bc 76 14 98 3c
       0.013738244 0.017755073 -0.022630636 0.018564444
000370 74 0b 5f bc 03 bf d5 3c 7c a6 68 3c a3 d0 a9 bc
       -0.0136135705 0.026092058 0.014199849 -0.020729369
000380 2f b2 15 3d c0 2c 6f bc 6e af bd 3a de 79 38 3d
       0.036546882 -0.014598072 0.0014471838 0.045038097
000390 7f 7f 0c 3c 71 b1 b6 bc 3f f4 09 3d 03 e9 16 3d
       0.008575319 -0.022301408 0.033680197 0.03684331
0003a0 3b a8 64 bc e0 c3 df 3c 4f c1 03 3d 2b 4c e6 bb
       -0.013956125 0.02731508 0.032166775 -0.007028123
0003b0 fa 6d b1 bc 12 0a c8 39 97 07 11 3b 36 eb 37 bd
       -0.021658886 0.00038154476 0.0022129768 -0.04490205
0003c0 93 5a ae 3c 25 1b 28 bd 18 d8 c8 bc 24 d3 49 bc
       0.021283424 -0.041041512 -0.024517104 -0.012318406
0003d0 8b 9e d3 3c 15 93 c2 3c 03 51 14 bd 78 45 e3 3b
       0.025832435 0.023751775 -0.03621007 0.0069357716
0003e0 4a da cf 3c 41 06 24 3d 6d db e6 3c ad 7a b1 3c
       0.025372643 0.040045027 0.028180802 0.021664942
0003f0 31 5d c9 3c e7 7c 15 3b b9 67 a6 3c 9f 5d 81 3c
       0.02458057 0.0022810043 0.02031313 0.015791712

fc1.bias f4 [128]
000000 c4 81 ec bc e0 b7 4a 3b 26 8d 03 3d fb de 48 bc
       -0.02887047 0.0030932352 0.03211703 -0.012260194
000010 41 f4 4d 3c e0 3c bc bb d1 f3 1f ba e2 4f c7 bc
       0.012570442 -0.0057445616 -0.00061017 -0.024330083
000020 66 ac ab bc 8f 17 9f bc b8 8a 26 bd 45 42 a4 bb
       -0.02095623 -0.019420413 -0.040659636 -0.0050127828
000030 97 2d 5a bc fa a7 9f 3d 88 07 78 bd ee 42 9d bb
       -0.0133165335 0.07795711 -0.060554057 -0.0047992384
000040 c4 2b 17 3d 5e cc cb bc 87 04 92 bb 1f 31 98 bc
       0.036906973 -0.024877723 -0.004456106 -0.01857811
000050 e5 a6 f6 38 9f 41 e8 3b 62 3e 50 3b 6a 4b 20 bd
       0.000117612806 0.007087901 0.0031775464 -0.03913442
000060 93 71 7a bd b9 07 50 bd 4d 29 f8 3b 47 aa 3d 3b
       -0.06114347 -0.050788615 0.007573283 0.0028940605
000070 36 4f da bc 17 e1 1c bd ab 69 97 bd 89 23 3c 3d
       -0.026649099 -0.0383006 -0.073932014 0.045932326
000080 7a 03 34 bc 4c 7c 07 3c c9 66 c1 bc d4 c2 26 3c
       -0.010987157 0.008269381 -0.023608582 0.010178287
000090 e2 ea 0d bd 35 20 23 3d e3 e3 1c bd 4d ca 7e bc
       -0.03464783 0.039825637 -0.038303267 -0.015551162
0000a0 49 d0 92 3b 51 3c b8 bc 2e cb 0a bd a9 60 c4 bb
       0.004480396 -0.022489699 -0.033885173 -0.005992968
0000b0 f6 87 46 bc 19 17 50 bc b8 eb 63 bb 02 ba 1c bc
       -0.012117377 -0.012700819 -0.003477795 -0.009565832
0000c0 1c 87 96 bc 94 b3 ef bc 12 55 a2 3b 21 86 13 bd
       -0.018374972 -0.029260434 0.004953989 -0.036016587
0000d0 9e cb 51 3c 8d ba 43 3d 2b 0e e0 bc 14 ab a7 bc
       0.012804894 0.04778533 -0.027350506 -0.020467319
0000e0 01 35 b8 3c b7 27 b9 bc 6c da 1a bd 9d 3e d8 bc
       0.022486212 -0.022601945 -0.03780596 -0.026397044
0000f0 53 fa 41 3c 57 6c 20 3c 0e f7 c5 bb 4d 95 98 3c
       0.011839467 0.009791455 -0.006041414 0.01862588
000100 60 56 21 bd f5 c6 01 bc 3e 8d 94 3b 2f 4e 8d 3a
       -0.039389014 -0.00792097 0.004533439 0.0010780747
000110 42 a0 34 bb e6 29 fd bc 93 34 4e bd 9f 7f a4 bc
       -0.0027561341 -0.030903768 -0.050343107 -0.020080386
000120 21 03 f0 bc 79 90 39 3b 84 7c 1a bd 77 c2 12 bd
       -0.029298367 0.0028314872 -0.037716404 -0.035829987
000130 86 7e 6e 3c aa d7 45 3b c5 46 67 3c 05 76 f9 bc
       0.014556533 0.003018836 0.014115994 -0.030451784
000140 c4 d3 2b bd 82 a7 09 bd 70 b9 74 bd 11 e4 74 bd
       -0.041950002 -0.033607014 -0.05974716 -0.059787814
000150 7b 93 4d bc 1e 68 a9 bc 01 d9 c7 ba 2f 71 cf 3c
       -0.012547369 -0.02067953 -0.0015247167 0.025322525
000160 49 7b 60 bd 6e df 52 bd c0 3b e0 bc 99 d7 9e bc
       -0.054805074 -0.05148261 -0.027372241 -0.019389914
000170 f0 f3 ae ba c3 12 3f bc 01 f5 a7 3c 66 b8 1b 3d
       -0.0013347846 -0.011662188 0.02050257 0.038017653
000180 9b 90 55 bc ba e9 12 bd fd c5 c0 bd e4 54 f2 bc
       -0.013034965 -0.03586743 -0.09412763 -0.029581495
000190 1c f6 b1 bc 4a e7 8a bd db 23 08 bd 54 2d 09 bc
       -0.0217238 -0.06782396 -0.03323732 -0.0083726235
0001a0 35 ad 14 bd bd 26 e9 bc 71 93 43 bd a0 20 3d bd
       -0.036297996 -0.028460855 -0.047748033 -0.04617369
0001b0 5e 69 40 3b c5 97 a2 bd 9a df be bc da 6c 14 bc
       0.0029359679 -0.07939104 -0.02329998 -0.009059155
0001c0 9f 94 6f bd 01 72 1e bd 22 72 ac bb 50 44 f3 bc
       -0.058491345 -0.03868294 -0.005262629 -0.02969566
0001d0 a0 48 ef bb ad cc c0 bc 93 50 2f bd 53 88 44 3b
       -0.0073023587 -0.023535097 -0.04280145 0.0029988482
0001e0 88 27 8e bd 44 bc da bc 5c 8e ab bc 2f b3 d3 3b
       -0.06941134 -0.0267011 -0.020941906 0.0064605693
0001f0 03 6e 3e bd 06 c2 2f bd cf 5c f8 bc 53 bd 34 bc
       -0.046491634 -0.042909645 -0.030317692 -0.011031467

fc2.weight f4 [10, 128]
000000 9e 32 81 bd 8a a0 84 3d 4c c1 78 3d be 5c d6 3d
       -0.063084826 0.06475933 0.060731217 0.10466908
000010 ca 97 0b 3d ce 3f ab bc c7 e3 27 3d 37 b5 1c bd
       0.034080304 -0.020904448 0.04098871 -0.038258757
000020 f7 e6 51 be fd ad 35 3d 43 a4 a5 3c 09 f3 92 be
       -0.20498262 0.04435538 0.020219928 -0.28701046
000030 be c2 70 bd 11 90 d7 bd 0d 07 ed bd 40 a0 ef bd
       -0.05877947 -0.10525525 -0.115736105 -0.11700487
000040 9f 7d 0f be 91 51 61 3d 6f f6 96 3d 4a b8 3e 3d
       -0.14012764 0.05500943 0.07371222 0.04656247
000050 31 ab 3d 3d f2 3f a4 be 9e 76 c0 3a 28 85 70 bd
       0.04630584 -0.32080036 0.0014683788 -0.058720738
000060 6e bb c1 3d 78 c8 37 3e b8 a8 ae be ad d7 09 bd
       0.094595775 0.17947567 -0.34113097 -0.03365295
000070 50 83 f2 bd c9 e5 1a 3e 67 6d 02 be 4e b3 26 3e
       -0.11841452 0.15126719 -0.12737046 0.16279337
000080 1d fd eb bd ff 3f 3c 3b ab 0c 98 be 3f 90 14 be
       -0.11522887 0.0028724668 -0.29697165 -0.1450815
000090 aa e2 b9 ba 90 cd cd 3d 78 51 04 3e c3 9c f5 3d
       -0.0014181931 0.100489736 0.12921703 0.119927905
0000a0 c6 d6 f0 bd 5d 65 50 be 98 b1 53 be 42 d2 f1 3d
       -0.11759715 -0.20351167 -0.20673215 0.118076816
0000b0 8b e7 25 3d 08 49 f4 bd 8a 8b c7 bd 07 36 27 be
       0.04050402 -0.11927992 -0.09743412 -0.16329204
0000c0 78 26 f9 3d 93 cc 0a 3d ff 59 21 bd 9f af a1 bd
       0.121655405 0.033886503 -0.039392468 -0.07894825
0000d0 7a 3f 10 3e 0b 98 f4 3d 08 a9 61 be 19 35 c8 bd
       0.14086714 0.119430624 -0.22037137 -0.097757526
0000e0 87 4d f6 3c a1 1a 8a bc 60 4a 21 3d 5d c8 b7 be
       0.030066265 -0.0168584 0.03937757 -0.35895053
0000f0 b0 13 1b 3e 13 3c 74 bc 86 af 29 39 40 38 9e 3c
       0.15144229 -0.014906901 0.00016182484 0.019313931
000100 77 aa 5d bd 28 5a fc 3d a4 e3 4b be ba 94 11 be
       -0.054117646 0.123218834 -0.19911057 -0.14216891
000110 89 c4 36 3d 4a b9 50 be fa 19 87 be 31 42 1a bc
       0.044621024 -0.20383182 -0.26387006 -0.009415195
000120 60 02 d9 be db 11 48 bd 4f 59 84 bd 10 94 02 bd
       -0.42384624 -0.048845153 -0.06462347 -0.031879485
000130 e1 0c 42 3d 8e 7d be 3d 62 db a1 bd 8b 4f 0b be
       0.047375564 0.093012914 -0.07903172 -0.13604562
000140 14 63 88 be bd 25 95 3d c3 05 d3 3d 93 34 ea bd
       -0.2663809 0.07282589 0.10303833 -0.11435809
000150 97 14 5d 3d c8 6e 51 be f2 82 1d 3d 6a d7 3e bd
       0.053974714 -0.20452416 0.038454957 -0.046592154
000160 4f b0 b0 bd 2c e1 f2 be 81 fb 90 be 40 df 04 3e
       -0.08627378 -0.47437418 -0.28316882 0.12975788
000170 6d 6b 67 bc c3 ad 3f bd 4c 4f 28 be 4b 54 11 3e
       -0.014124733 -0.04679657 -0.164365 0.14192311
000180 56 45 0b 3e 8c cc ba bc ef 09 74 bd 21 86 02 3e
       0.13600668 -0.022802614 -0.059579786 0.12746479
000190 b5 89 8e be cd 16 87 be a8 25 67 be d2 87 0b 3e
       -0.27839437 -0.26384583 -0.22572958 0.1362603
0001a0 78 ad 5c be eb 09 21 3e 00 96 6a be 2d f3 a1 bd
       -0.21550548 0.1572644 -0.22908783 -0.0790771
0001b0 24 77 cd bd 18 9f b2 3d a5 8d 04 bd 89 53 b5 be
       -0.1003249 0.08721751 -0.032361645 -0.35415295
0001c0 9e 42 e2 3d 99 97 14 3e 4e d9 1d 3d 9f 92 a1 3d
       0.110478625 0.14510955 0.038537316 0.07889294
0001d0 6e 4e ff 3d 67 61 af bb fa ee 2b be da 01 0c 3e
       0.12466131 -0.0053521874 -0.16790381 0.13672581
0001e0 c7 44 49 3e 20 ea 48 3d 1d c8 ef 3d e7 b3 41 be
       0.19655143 0.049051404 0.117080905 -0.18916284
0001f0 fc 58 80 be 44 1e 2d bd 9e 9d 39 3d 19 cf 15 3d
       -0.2506789 -0.04226519 0.04531633 0.036574457
000200 56 f2 68 bd 92 74 e2 bd fd 20 b8 3d 0f 82 37 be
       -0.056871735 -0.1105739 0.08990667 -0.17920707
000210 39 ea 18 3b 42 6f cf 3c 74 39 60 be 63 e0 18 3e
       0.0023332967 0.025321607 -0.21896917 0.14929347
000220 ba 92 6c be 49 d2 83 3d f7 ec 58 bd 88 8f e1 3d
       -0.23102847 0.06436593 -0.052960362 0.110137045
000230 0f 43 a1 be ca 52 8e bd 84 59 7f 3a 18 a1 29 3e
       -0.31496474 -0.069493845 0.0009740817 0.16565359
000240 31 b9 b7 bd 88 e2 81 bc 81 e7 78 be 4b 2a 8b 39
       -0.08970869 -0.015855089 -0.24307062 0.00026543657
000250 93 3b 99 3d 8a 49 9d 3e e0 28 40 3e 50 bb 12 3d
       0.07482066 0.30720168 0.18765593 0.035823166
000260 85 09 19 be 25 2b 67 3e 74 d2 00 be 71 37 0e bd
       -0.14945038 0.22575052 -0.12580281 -0.03472084
000270 33 08 00 3e ea df 8e be 69 38 97 be 41 a3 38 be
       0.12503128 -0.27905208 -0.29535225 -0.18031026
000280 f8 c4 3f 3b ef 1e 3e be 7b ad e3 3c 1f 5d da bd
       0.002926169 -0.18566488 0.027792683 -0.10662293
000290 cc ca b5 3d 2a c8 e4 bb aa 8e 32 be 5c 96 47 be
       0.08876571 -0.006981869 -0.17437235 -0.19490951
0002a0 e6 7b 1a 3d f8 60 dd bb 90 39 4a 3b 0d ed b6 3b
       0.037715815 -0.0067559443 0.0030857064 0.005582458
0002b0 38 b3 63 3e 3d 57 27 be 68 73 46 3e 18 15 23 be
       0.22236335 -0.16341873 0.19379961 -0.15926015
0002c0 6d 56 49 be 37 e0 c6 bd ca 68 e3 bc de a7 3e 3d
       -0.19661875 -0.09710734 -0.027759928 0.04654681
0002d0 b9 cc ac bd 2d 98 7e bd 86 86 e7 3d 50 44 49 be
       -0.08437485 -0.062156845 0.11304955 -0.19654965
0002e0 e2 8c ed 3d df da e9 bd 8c 0b 13 bd 2b c9 c1 bd
       0.11599137 -0.114186995 -0.035899684 -0.09462198
0002f0 c0 69 fe 3d 02 40 64 bd b6 d6 c4 be 68 96 5f 3e
       0.12422514 -0.055725105 -0.3844506 0.21834719
000300 b8 0a b6 3d a9 46 80 be dc 24 16 bd 76 20 a9 3d
       0.08888763 -0.2505391 -0.036656246 0.082581446
000310 99 99 04 3d dc 41 a4 bc d2 6a 8f 3d 44 85 96 bd
       0.032373045 -0.020050935 0.07002796 -0.07349637
000320 fd 40 93 bd 93 57 69 bd 76 42 94 bc 57 2d 7d 3d
       -0.0719013 -0.056968283 -0.018098097 0.061810818
000330 50 06 36 3b 30 86 9a 3d 92 37 9a 3d ad 0e f4 bc
       0.0027774759 0.075451255 0.075301304 -0.029792154
000340 81 b1 38 3e de 40 3d 3c 6c c0 a6 bd 3e d1 2e 3e
       0.18036462 0.01155111 -0.0814217 0.17072007
000350 59 6c fe bd f3 55 13 be 91 cf 35 3e 38 98 df bc
       -0.124230094 -0.14388256 0.17754962 -0.027294263
000360 e0 2a c6 3d e5 6b 57 bd 15 52 42 3d 14 cb 95 be
       0.096761465 -0.05259313 0.04744156 -0.292565
000370 6f 73 27 bd ee 47 07 bd 61 05 3d be 58 ae 8d bc
       -0.04088157 -0.033027582 -0.18459083 -0.017295048
000380 79 7a a1 be 88 31 43 3e 47 90 10 3d 23 4e 85 be
       -0.31538752 0.19061863 0.035293844 -0.26036176
000390 32 78 e1 ba e0 a4 56 3e 18 ed c5 3d eb 30 20 3e
       -0.0017201959 0.20961332 0.09664363 0.1564366
0003a0 ac b1 b4 bc cf 89 61 be a4 b6 7f bd 1a 37 75 bd
       -0.022057377 -0.22025226 -0.06243004 -0.059867002
0003b0 9e 34 b3 3d 17 3f 94 3d e7 78 a8 bd 48 ad a7 3e
       0.0875027 0.07238596 -0.08226185 0.3274939
0003c0 d0 64 ec bb bc 55 28 be e2 7e 83 be ed fe fa bd
       -0.007214166 -0.16438955 -0.2568274 -0.122556545
0003d0 77 4b 22 be ae 89 a4 bd 6b dc 2d be 1c f1 9b be
       -0.158491 -0.08034073 -0.16978614 -0.3045739
0003e0 a8 c9 03 3e 7f 1a e2 bd ba 5c e6 3d f9 52 e7 3d
       0.12869895 -0.1104021 0.11248155 0.11295123
0003f0 ac 2b c2 3d ab f5 4c 3e 2c e8 9e 3d 71 2d 47 bd
       0.09480986 0.2001559 0.07759127 -0.04862732

fc2.bias f4 [10]
000000 ed 3b 30 bc 8f f6 10 be 6f 73 9a 3c 5b fe cd bd
       -0.010756475 -0.14156555 0.018853871 -0.1005828
000010 4f 34 ad 3d 37 f1 09 be 4d 06 cc bd f2 3d 0b be
       0.08457243 -0.13470922 -0.09962139 -0.13597849
000020 27 15 23 3e f4 52 16 3d
       0.15926038 0.036700204
