models/mlp_mnist_bf16.pth (torch, 205704 bytes, 4 tensors)

fc1.weight bf16 [128, 784]
-0.0076293945 -0.02355957 0.041748047 0.021118164 -0.019165039 -0.013977051 0.016357422 0.016357422
-0.028076172 -0.020629883 -0.019165039 0.0012283325 -0.020019531 0.010131836 0.025634766 0.0099487305
0.01550293 -0.028076172 0.024902344 -0.013671875 -0.013977051 -0.020019531 -0.023925781 0.0041503906
-0.009338379 -0.021240234 -0.009338379 -0.018188477 -0.009094238 -0.021240234 -0.019165039 -0.0072631836
0.041015625 -0.015319824 0.025268555 -0.019165039 0.040771484 0.0041503906 0.022460938 0.024414062
0.015319824 0.008666992 -0.009643555 -0.023071289 0.0023956299 0.021362305 -0.0018844604 -0.013671875
-0.008300781 -0.024780273 0.041015625 -0.0076293945 -0.028320312 0.024902344 -0.021850586 0.0039978027
-0.019165039 0.0039978027 -0.025756836 -0.013977051 -0.0036621094 -0.013671875 0.0041503906 -0.014831543
-0.00592041 0.025512695 -0.017700195 0.04296875 -0.01550293 -0.012878418 -0.029663086 -0.048339844
-0.030151367 -0.029907227 -0.04272461 0.020141602 -0.030273438 -0.013671875 -0.028076172 0.0072631836
0.02319336 0.0072631836 0.0012817383 0.025268555 -0.015319824 0.0039978027 -0.0076293945 0.0039978027
0.016357422 0.041992188 0.041259766 -0.017456055 0.033935547 0.0625 0.06542969 0.068847656
0.06225586 0.06933594 0.025512695 -0.035888672 -0.0703125 -0.07128906 -0.049560547 -0.056152344
-0.021728516 -0.0051879883 -0.0068359375 0.020996094 0.0012588501 -0.028076172 -0.006652832 0.014282227
0.0099487305 -0.0036621094 -0.013977051 -0.019165039 -0.0015029907 -0.014343262 -0.0029296875 0.06347656
0.100097656 0.096191406 0.07910156 0.092285156 0.053466797 0.04663086 0.049804688 -0.026000977
-0.07421875 -0.072265625 -0.063964844 -0.11669922 -0.114746094 -0.07861328 -0.042236328 -0.04663086
-0.008422852 0.009094238 0.041748047 -0.024658203 -0.013977051 -0.019165039 0.0041503906 0.0008087158
0.006378174 0.061523438 0.0703125 0.067871094 0.07519531 0.080078125 0.072753906 0.08886719
0.08496094 0.07470703 0.08691406 0.061035156 -0.024658203 -0.051513672 -0.072265625 -0.09423828
-0.06201172 -0.07910156 -0.114746094 -0.06347656 -0.06933594 0.025878906 0.0046691895 0.025268555
-0.026489258 0.0072631836 0.026367188 0.053466797 0.053710938 0.068847656 0.079589844 0.05834961
0.064453125 0.039794922 0.07080078 0.09277344 0.09472656 0.12402344 0.12207031 0.12597656
0.12402344 0.07861328 0.0008583069 -0.0625 -0.080078125 -0.08544922 -0.119628906 -0.08105469
-0.072265625 -0.0038909912 0.009460449 0.025024414 -0.013977051 -0.027832031 0.044433594 0.041992188
0.012145996 -0.040527344 0.060546875 0.07421875 0.07519531 0.030029297 0.07324219 0.0625
0.091796875 0.12402344 0.123046875 0.12207031 0.088378906 0.07373047 0.05053711 -0.033935547
-0.056396484 -0.10449219 -0.11621094 -0.125 -0.072265625 -0.018920898 0.026489258 -0.028076172
0.016357422 -0.0008010864 -0.018066406 0.0013961792 -0.0036468506 -0.055419922 -0.033935547 -0.010131836
0.06542969 0.005279541 0.061523438 0.068847656 0.109375 0.05517578 0.057373047 0.10058594
0.07714844 0.036132812 0.07080078 0.037597656 0.0023956299 -0.032226562 -0.045654297 -0.076171875
-0.07080078 -0.028930664 0.026000977 -0.019165039 -0.013671875 -0.013977051 -0.0067749023 -0.017578125
00000000: fabb c1bc 2b3d ad3c 9dbc 65bc 863c 863c
00000010: e6bc a9bc 9dbc a13a a4bc 263c d23c 233c
00000020: 7e3c e6bc cc3c 60bc 65bc a4bc c4bc 883b
00000030: 19bc aebc 19bc 95bc 15bc aebc 9dbc eebb
00000040: 283d 7bbc cf3c 9dbc 273d 883b b83c c83c
00000050: 7b3c 0e3c 1ebc bdbc 1d3b af3c f7ba 60bc
00000060: 08bc cbbc 283d fabb e8bc cc3c b3bc 833b
00000070: 9dbc 833b d3bc 65bc 70bb 60bc 883b 73bc
00000080: c2bb d13c 91bc 303d 7ebc 53bc f3bc 46bd
00000090: f7bc f5bc 2fbd a53c f8bc 60bc e6bc ee3b
000000a0: be3c ee3b a83a cf3c 7bbc 833b fabb 833b
000000b0: 863c 2c3d 293d 8fbc 0b3d 803d 863d 8d3d
000000c0: 7f3d 8e3d d13c 13bd 90bd 92bd 4bbd 66bd
000000d0: b2bc aabb e0bb ac3c a53a e6bc dabb 6a3c
000000e0: 233c 70bb 65bc 9dbc c5ba 6bbc 40bb 823d
000000f0: cd3d c53d a23d bd3d 5b3d 3f3d 4c3d d5bc
00000100: 98bd 94bd 83bd efbd ebbd a1bd 2dbd 3fbd
00000110: 0abc 153c 2b3d cabc 65bc 9dbc 883b 543a
00000120: d13b 7c3d 903d 8b3d 9a3d a43d 953d b63d
00000130: ae3d 993d b23d 7a3d cabc 53bd 94bd c1bd
00000140: 7ebd a2bd ebbd 82bd 8ebd d43c 993b cf3c
00000150: d9bc ee3b d83c 5b3d 5c3d 8d3d a33d 6f3d
00000160: 843d 233d 913d be3d c23d fe3d fa3d 013e
00000170: fe3d a13d 613a 80bd a4bd afbd f5bd a6bd
00000180: 94bd 7fbb 1b3c cd3c 65bc e4bc 363d 2c3d
00000190: 473c 26bd 783d 983d 9a3d f63c 963d 803d
000001a0: bc3d fe3d fc3d fa3d b53d 973d 4f3d 0bbd
000001b0: 67bd d6bd eebd 00be 94bd 9bbc d93c e6bc
000001c0: 863c 52ba 94bc b73a 6fbb 63bd 0bbd 26bc
000001d0: 863d ad3b 7c3d 8d3d e03d 623d 6b3d ce3d
000001e0: 9e3d 143d 913d 1a3d 1d3b 04bd 3bbd 9cbd
000001f0: 91bd edbc d53c 9dbc 60bc 65bc debb 90bc

fc1.bias bf16 [128]
0.013061523 -0.027832031 -0.017456055 0.048095703 0.013671875 -0.008850098 -0.010070801 0.026245117
-0.030029297 -0.010925293 -0.05908203 -0.0005569458 -0.028808594 0.030029297 -0.015319824 0.04272461
0.0043945312 0.005065918 0.057128906 -0.013244629 0.043945312 -0.012756348 0.011291504 -0.013305664
0.013305664 -0.0012817383 0.023071289 -0.020629883 -0.0076904297 -0.015136719 0.013427734 0.020996094
0.020629883 -0.021606445 -0.026611328 -0.023925781 -0.014526367 0.0057678223 -0.044433594 0.02368164
0.020874023 0.0032958984 0.016479492 0.006958008 0.021240234 0.013244629 0.021118164 -0.028320312
-0.00680542 0.011413574 0.022949219 -0.037597656 0.01373291 0.008544922 0.020874023 -0.00020503998
-0.028198242 0.020751953 0.036376953 0.028808594 -0.009765625 -0.035888672 0.055908203 -0.021606445
0.019897461 -0.008239746 0.009277344 -0.0044555664 -0.0027313232 -0.014770508 -0.02319336 -0.005706787
-0.003692627 -0.018310547 -0.0032806396 0.01940918 -0.0031433105 -0.02709961 0.045166016 -0.010070801
0.020751953 0.015136719 0.022949219 0.0390625 -0.016601562 0.028442383 0.0029449463 0.03173828
0.01586914 0.018554688 0.028320312 0.02368164 0.0011138916 0.026489258 -0.0024871826 -0.029296875
-0.021240234 -0.0027313232 0.032470703 0.004852295 0.025024414 -0.02709961 -0.018798828 -0.037109375
-0.008361816 -0.026611328 0.010864258 0.017211914 0.006958008 0.020019531 -0.033935547 -0.033203125
0.026611328 -0.014831543 0.002243042 -0.004180908 -0.036865234 -0.0010757446 0.022949219 0.052734375
0.016601562 0.029052734 0.023925781 0.033447266 -0.010559082 -0.0066833496 -0.018432617 -0.007873535
00000000: 563c e4bc 8fbc 453d 603c 11bc 25bc d73c
00000010: f6bc 33bc 72bd 12ba ecbc f63c 7bbc 2f3d
00000020: 903b a63b 6a3d 59bc 343d 51bc 393c 5abc
00000030: 5a3c a8ba bd3c a9bc fcbb 78bc 5c3c ac3c
00000040: a93c b1bc dabc c4bc 6ebc bd3b 36bd c23c
00000050: ab3c 583b 873c e43b ae3c 593c ad3c e8bc
00000060: dfbb 3b3c bc3c 1abd 613c 0c3c ab3c 57b9
00000070: e7bc aa3c 153d ec3c 20bc 13bd 653d b1bc
00000080: a33c 07bc 183c 92bb 33bb 72bc bebc bbbb
00000090: 72bb 96bc 57bb 9f3c 4ebb debc 393d 25bc
000000a0: aa3c 783c bc3c 203d 88bc e93c 413b 023d
000000b0: 823c 983c e83c c23c 923a d93c 23bb f0bc
000000c0: aebc 33bb 053d 9f3b cd3c debc 9abc 18bd
000000d0: 09bc dabc 323c 8d3c e43b a43c 0bbd 08bd
000000e0: da3c 73bc 133b 89bb 17bd 8dba bc3c 583d
000000f0: 883c ee3c c43c 093d 2dbc dbbb 97bc 01bc

fc2.weight bf16 [10, 128]
0.107421875 -0.06933594 -0.0703125 -0.035888672 0.045166016 -0.12695312 -0.041992188 0.045654297
0.125 -0.045654297 0.091308594 0.09667969 -0.012268066 -0.041259766 0.07861328 -0.059814453
-0.0107421875 -0.0126953125 -0.072265625 0.028808594 -0.00579834 0.015991211 0.07470703 0.09277344
0.12988281 0.092285156 -0.01940918 0.05908203 -0.07470703 0.052734375 -0.022949219 -0.012573242
0.014038086 0.12597656 0.11425781 -0.0625 0.12402344 -0.052001953 -0.04321289 -0.067871094
0.08544922 0.055908203 -0.00982666 -0.046142578 -0.05859375 0.049072266 -0.076660156 0.13085938
-0.027832031 -0.03173828 0.078125 -0.002090454 0.123535156 0.053710938 0.059326172 0.064941406
-0.030883789 -0.044189453 0.0154418945 -0.043945312 -0.15625 0.057128906 0.103515625 0.0859375
0.06591797 -0.09033203 -0.027709961 0.05126953 -0.075683594 0.07470703 -0.051757812 0.057617188
-0.05053711 -0.04711914 -0.12451172 -0.059326172 0.067871094 -0.09423828 0.118652344 -0.20605469
-0.072753906 0.10644531 -0.06933594 -0.12402344 -0.078125 -0.10253906 -0.022460938 0.109375
-0.06689453 -0.084472656 -0.057861328 -0.06298828 0.099121094 -0.017822266 -0.06640625 0.12207031
-0.08886719 -0.14648438 -0.15039062 -0.060546875 -0.0028533936 0.115234375 -0.036621094 0.083496094
0.072265625 0.060302734 -0.061523438 0.047607422 -0.061767578 0.104003906 -0.099609375 -0.048095703
-0.030151367 -0.08935547 0.056396484 -0.026855469 0.07128906 0.100097656 -0.13671875 0.06982422
0.092285156 -0.056152344 0.091308594 0.09814453 0.13378906 -0.05883789 0.07714844 -0.052734375
-0.11621094 0.005432129 0.02355957 0.03173828 -0.003036499 -0.052246094 0.09277344 -0.0126953125
0.05908203 0.034423828 0.08203125 0.17089844 0.119628906 -0.036132812 -0.008728027 -0.051757812
-0.043945312 0.08203125 -0.068359375 0.10253906 -0.02746582 -0.033691406 -0.017944336 -0.091796875
-0.09472656 -0.036376953 -0.025512695 -0.11230469 0.022705078 0.07763672 0.083496094 0.024169922
-0.12402344 -0.038085938 -0.06542969 0.059326172 -0.048095703 0.14550781 0.032226562 0.06225586
-0.12695312 -0.078125 0.064941406 0.09033203 0.099609375 -0.059570312 0.12890625 -0.04638672
0.103515625 -0.080566406 -0.037597656 -0.063964844 -0.067871094 -0.029785156 0.03540039 0.018920898
-0.076171875 -0.059326172 -0.09814453 0.072753906 0.07470703 -0.032714844 0.19433594 0.07128906
0.118652344 0.10644531 -0.125 0.13574219 0.06689453 -0.076660156 0.04248047 -0.017089844
0.13671875 -0.037841797 0.09375 -0.11328125 0.125 -0.029052734 -0.140625 -0.12890625
-0.0014419556 0.12988281 -0.04248047 -0.068359375 0.1015625 0.0859375 0.072265625 -0.03564453
0.020385742 0.16113281 0.071777344 -0.04272461 -0.09472656 0.052490234 0.063964844 -0.07128906
0.07470703 -0.087402344 0.16015625 0.064453125 -0.014465332 0.11621094 -0.052490234 0.09814453
0.0703125 0.020141602 -0.0234375 -0.04638672 -0.02722168 0.19140625 0.0073547363 0.10253906
-0.119140625 0.125 -0.067871094 -0.10546875 0.060791016 -0.006500244 0.020996094 -0.02709961
-0.041503906 0.11230469 -0.061523438 0.13476562 -0.05883789 -0.07861328 -0.05834961 -0.06201172
00000000: dc3d 8ebd 90bd 13bd 393d 02be 2cbd 3b3d
00000010: 003e 3bbd bb3d c63d 49bc 29bd a13d 75bd
00000020: 30bc 50bc 94bd ec3c bebb 833c 993d be3d
00000030: 053e bd3d 9fbc 723d 99bd 583d bcbc 4ebc
00000040: 663c 013e ea3d 80bd fe3d 55bd 31bd 8bbd
00000050: af3d 653d 21bc 3dbd 70bd 493d 9dbd 063e
00000060: e4bc 02bd a03d 09bb fd3d 5c3d 733d 853d
00000070: fdbc 35bd 7d3c 34bd 20be 6a3d d43d b03d
00000080: 873d b9bd e3bc 523d 9bbd 993d 54bd 6c3d
00000090: 4fbd 41bd ffbd 73bd 8b3d c1bd f33d 53be
000000a0: 95bd da3d 8ebd febd a0bd d2bd b8bc e03d
000000b0: 89bd adbd 6dbd 81bd cb3d 92bc 88bd fa3d
000000c0: b6bd 16be 1abe 78bd 3bbb ec3d 16bd ab3d
000000d0: 943d 773d 7cbd 433d 7dbd d53d ccbd 45bd
000000e0: f7bc b7bd 673d dcbc 923d cd3d 0cbe 8f3d
000000f0: bd3d 66bd bb3d c93d 093e 71bd 9e3d 58bd
00000100: eebd b23b c13c 023d 47bb 56bd be3d 50bc
00000110: 723d 0d3d a83d 2f3e f53d 14bd 0fbc 54bd
00000120: 34bd a83d 8cbd d23d e1bc 0abd 93bc bcbd
00000130: c2bd 15bd d1bc e6bd ba3c 9f3d ab3d c63c
00000140: febd 1cbd 86bd 733d 45bd 153e 043d 7f3d
00000150: 02be a0bd 853d b93d cc3d 74bd 043e 3ebd
00000160: d43d a5bd 1abd 83bd 8bbd f4bc 113d 9b3c
00000170: 9cbd 73bd c9bd 953d 993d 06bd 473e 923d
00000180: f33d da3d 00be 0b3e 893d 9dbd 2e3d 8cbc
00000190: 0c3e 1bbd c03d e8bd 003e eebc 10be 04be
000001a0: bdba 053e 2ebd 8cbd d03d b03d 943d 12bd
000001b0: a73c 253e 933d 2fbd c2bd 573d 833d 92bd
000001c0: 993d b3bd 243e 843d 6dbc ee3d 57bd c93d
000001d0: 903d a53c c0bc 3ebd dfbc 443e f13b d23d
000001e0: f4bd 003e 8bbd d8bd 793d d5bb ac3c debc
000001f0: 2abd e63d 7cbd 0a3e 71bd a1bd 6fbd 7ebd

fc2.bias bf16 [10]
-0.05810547 -0.014709473 -0.0061035156 0.018432617 0.011413574 -0.061767578 -0.048583984 -0.046142578
0.036865234 -0.0022277832
00000000: 6ebd 71bc c8bb 973c 3b3c 7dbd 47bd 3dbd
00000010: 173d 12bb
